…
2023-06-13 21:31:44.972077: I tensorflow/stream_executor/platform/default/dso_loader.cc:53] Successfully opened dynamic library cudart64_110.dll
Model Architecture and Trainable Paramerters
==================================================
-------------------------------------------------------------------------------------------------------------
      Layer (type)                                              Output Shape         Param #     Tr. Param #
=============================================================================================================
        DenseNet-1     [1, 256, 64, 64], [1, 512, 32, 32], [1, 1024, 32, 32]       6,951,808       6,951,808
          Conv2d-2                                          [1, 256, 32, 32]         262,400         262,400
            ReLU-3                                          [1, 256, 32, 32]               0               0
         Dropout-4                                          [1, 256, 32, 32]               0               0
          Conv2d-5                                          [1, 256, 32, 32]          65,792          65,792
            ReLU-6                                          [1, 256, 32, 32]               0               0
         Dropout-7                                          [1, 256, 32, 32]               0               0
    TableDecoder-8                                        [1, 1, 1024, 1024]         885,377         885,377
   ColumnDecoder-9                                        [1, 1, 1024, 1024]         951,169         951,169
=============================================================================================================
Total params: 9,116,546
Trainable params: 9,116,546
Non-trainable params: 0
-------------------------------------------------------------------------------------------------------------


============================================== Hierarchical Summary ==============================================
…
